Neural Network Tools for STM32AI v1.7.0 (STM.ai v8.0.0-19389)
Created date          : 2023-05-10 05:17:10
Parameters            : generate --name test1 -m F:/Graduation Project/Model/model.h5 --type keras --compression low --verbosity 1 --workspace C:\Users\HANINA~1\AppData\Local\Temp\mxAI_workspace19908484289570014776323902914779230 --output C:\Users\Hanin Anwar\.stm32cubemx\test1_output --allocate-inputs --series stm32f4 --allocate-outputs

Exec/report summary (generate)
----------------------------------------------------------------------------------------------------------------
model file         :   F:\Graduation Project\Model\model.h5                                                     
type               :   keras                                                                                    
c_name             :   test1                                                                                    
compression        :   low                                                                                      
options            :   allocate-inputs, allocate-outputs                                                        
optimization       :   balanced                                                                                 
target/series      :   stm32f4                                                                                  
workspace dir      :   C:\Users\HANINA~1\AppData\Local\Temp\mxAI_workspace19908484289570014776323902914779230   
output dir         :   C:\Users\Hanin Anwar\.stm32cubemx\test1_output                                           
model_fmt          :   float                                                                                    
model_name         :   model                                                                                    
model_hash         :   ceeb484f1e0e19be9fed4c5ccb724fed                                                         
params #           :   133,251 items (520.51 KiB)                                                               
----------------------------------------------------------------------------------------------------------------
input 1/1          :   'input_0' (domain:activations/**default**)                                               
                   :   6 items, 24 B, ai_float, float, (1,1,1,6)                                                
output 1/1         :   'L5' (domain:activations/**default**)                                                    
                   :   1 items, 4 B, ai_float, float, (1,1,1,1)                                                 
macc               :   134,061                                                                                  
weights (ro)       :   160,052 B (156.30 KiB) (1 segment) / -372,952(-70.0%) vs float model                     
activations (rw)   :   2,600 B (2.54 KiB) (1 segment) *                                                         
ram (total)        :   2,600 B (2.54 KiB) = 2,600 + 0 + 0                                                       
----------------------------------------------------------------------------------------------------------------
(*) 'input'/'output' buffers can be used from the activations buffer

Model name - model ['input_0'] ['L5']
------ -------------------------- ---------------- ----------------- --------- -------------- --- ------------------ ----------------- ----------------------------- 
m_id   layer (type,original)      oshape           param/size             macc   connected to   | c_size             c_macc            c_type                        
------ -------------------------- ---------------- ----------------- --------- -------------- --- ------------------ ----------------- ----------------------------- 
0      input_0 (Input, None)      [b:None,c:6]                                                  | +11,200(+100.0%)   +3,200(+100.0%)   dense_of32/nl_of32[0, 1]      
       L1_dense (Dense, Dense)    [b:None,c:400]   2,800/11,200          2,800        input_0   | -11,200(-100.0%)   -2,800(-100.0%)   
       L1 (Nonlinearity, Dense)   [b:None,c:400]                           400       L1_dense   |                    -400(-100.0%)     
------ -------------------------- ---------------- ----------------- --------- -------------- --- ------------------ ----------------- ----------------------------- 
1      L2_dense (Dense, Dense)    [b:None,c:250]   100,250/401,000     100,250             L1   | -298,976(-74.6%)   +250(+0.2%)       dense_wc8of32/nl_of32[2, 3]   
       L2 (Nonlinearity, Dense)   [b:None,c:250]                           250       L2_dense   |                    -250(-100.0%)     
------ -------------------------- ---------------- ----------------- --------- -------------- --- ------------------ ----------------- ----------------------------- 
2      L3_dense (Dense, Dense)    [b:None,c:100]   25,100/100,400       25,100             L2   | -73,976(-73.7%)    +100(+0.4%)       dense_wc8of32/nl_of32[4, 5]   
       L3 (Nonlinearity, Dense)   [b:None,c:100]                           100       L3_dense   |                    -100(-100.0%)     
------ -------------------------- ---------------- ----------------- --------- -------------- --- ------------------ ----------------- ----------------------------- 
3      L4_dense (Dense, Dense)    [b:None,c:50]    5,050/20,200          5,050             L3   |                    +50(+1.0%)        dense_of32/nl_of32[6, 7]      
       L4 (Nonlinearity, Dense)   [b:None,c:50]                             50       L4_dense   |                    -50(-100.0%)      
------ -------------------------- ---------------- ----------------- --------- -------------- --- ------------------ ----------------- ----------------------------- 
4      L5_dense (Dense, Dense)    [b:None,c:1]     51/204                   51             L4   |                    +10(+19.6%)       dense_of32/nl_of32[o][8, 9]   
       L5 (Nonlinearity, Dense)   [b:None,c:1]                              10       L5_dense   |                    -10(-100.0%)      
------ -------------------------- ---------------- ----------------- --------- -------------- --- ------------------ ----------------- ----------------------------- 
model/c-model: macc=134,061/134,061  weights=533,004/160,052 -372,952(-70.0%) activations=--/2,600 io=--/0



Generated C-graph summary
------------------------------------------------------------------------------------------------------------------------
model name            : model
c-name                : test1
c-node #              : 10
c-array #             : 21
activations size      : 2600 (1 segment)
weights size          : 160052 (1 segment)
macc                  : 134061
inputs                : ['input_0_output']
outputs               : ['L5_output']

C-Arrays (21)
------ ------------------ --------------- ------------------------- ------------- ----------- --------- 
c_id   name (*_array)     item/size       domain/mem-pool           c-type        fmt         comment   
------ ------------------ --------------- ------------------------- ------------- ----------- --------- 
0      input_0_output     6/24            activations/**default**   float         float32     /input    
1      L1_dense_output    400/1600        activations/**default**   float         float32               
2      L1_output          400/1600        activations/**default**   float         float32               
3      L2_dense_output    250/1000        activations/**default**   float         float32               
4      L2_output          250/1000        activations/**default**   float         float32               
5      L3_dense_output    100/400         activations/**default**   float         float32               
6      L3_output          100/400         activations/**default**   float         float32               
7      L4_dense_output    50/200          activations/**default**   float         float32               
8      L4_output          50/200          activations/**default**   float         float32               
9      L5_dense_output    1/4             activations/**default**   float         float32               
10     L5_output          1/4             activations/**default**   float         float32     /output   
11     L1_dense_weights   2400/9600       weights/weights           const float   float32               
12     L1_dense_bias      400/1600        weights/weights           const float   float32               
13     L2_dense_weights   100000/101024   weights/weights           const float   c8 (LUT8)             
14     L2_dense_bias      250/1000        weights/weights           const float   float32               
15     L3_dense_weights   25000/26024     weights/weights           const float   c8 (LUT8)             
16     L3_dense_bias      100/400         weights/weights           const float   float32               
17     L4_dense_weights   5000/20000      weights/weights           const float   float32               
18     L4_dense_bias      50/200          weights/weights           const float   float32               
19     L5_dense_weights   50/200          weights/weights           const float   float32               
20     L5_dense_bias      1/4             weights/weights           const float   float32               
------ ------------------ --------------- ------------------------- ------------- ----------- --------- 

C-Layers (10)
------ ---------------- ---- ------------ -------- -------- --------------------- -------------------- 
c_id   name (*_layer)   id   layer_type   macc     rom      tensors               shape (array id)     
------ ---------------- ---- ------------ -------- -------- --------------------- -------------------- 
0      L1_dense         0    dense        2800     11200    I: input_0_output     (1,1,1,6) (0)        
                                                            W: L1_dense_weights   (6,1,1,400) (11)     
                                                            W: L1_dense_bias      (1,1,1,400) (12)     
                                                            O: L1_dense_output    (1,1,1,400) (1)      
------ ---------------- ---- ------------ -------- -------- --------------------- -------------------- 
1      L1               0    nl           400      0        I: L1_dense_output    (1,1,1,400) (1)      
                                                            O: L1_output          (1,1,1,400) (2)      
------ ---------------- ---- ------------ -------- -------- --------------------- -------------------- 
2      L2_dense         1    dense        100250   102024   I: L1_output          (1,1,1,400) (2)      
                                                            W: L2_dense_weights   (400,1,1,250) (13)   
                                                            W: L2_dense_bias      (1,1,1,250) (14)     
                                                            O: L2_dense_output    (1,1,1,250) (3)      
------ ---------------- ---- ------------ -------- -------- --------------------- -------------------- 
3      L2               1    nl           250      0        I: L2_dense_output    (1,1,1,250) (3)      
                                                            O: L2_output          (1,1,1,250) (4)      
------ ---------------- ---- ------------ -------- -------- --------------------- -------------------- 
4      L3_dense         2    dense        25100    26424    I: L2_output          (1,1,1,250) (4)      
                                                            W: L3_dense_weights   (250,1,1,100) (15)   
                                                            W: L3_dense_bias      (1,1,1,100) (16)     
                                                            O: L3_dense_output    (1,1,1,100) (5)      
------ ---------------- ---- ------------ -------- -------- --------------------- -------------------- 
5      L3               2    nl           100      0        I: L3_dense_output    (1,1,1,100) (5)      
                                                            O: L3_output          (1,1,1,100) (6)      
------ ---------------- ---- ------------ -------- -------- --------------------- -------------------- 
6      L4_dense         3    dense        5050     20200    I: L3_output          (1,1,1,100) (6)      
                                                            W: L4_dense_weights   (100,1,1,50) (17)    
                                                            W: L4_dense_bias      (1,1,1,50) (18)      
                                                            O: L4_dense_output    (1,1,1,50) (7)       
------ ---------------- ---- ------------ -------- -------- --------------------- -------------------- 
7      L4               3    nl           50       0        I: L4_dense_output    (1,1,1,50) (7)       
                                                            O: L4_output          (1,1,1,50) (8)       
------ ---------------- ---- ------------ -------- -------- --------------------- -------------------- 
8      L5_dense         4    dense        51       204      I: L4_output          (1,1,1,50) (8)       
                                                            W: L5_dense_weights   (50,1,1,1) (19)      
                                                            W: L5_dense_bias      (1,1,1,1) (20)       
                                                            O: L5_dense_output    (1,1,1,1) (9)        
------ ---------------- ---- ------------ -------- -------- --------------------- -------------------- 
9      L5               4    nl           10       0        I: L5_dense_output    (1,1,1,1) (9)        
                                                            O: L5_output          (1,1,1,1) (10)       
------ ---------------- ---- ------------ -------- -------- --------------------- -------------------- 



Number of operations per c-layer
------- ------ ------------------ --------- -------------- --------- ---------- 
c_id    m_id   name (type)              #op           type    #param   sparsity 
------- ------ ------------------ --------- -------------- --------- ---------- 
0       0      L1_dense (dense)       2,800   smul_f32_f32     2,800     0.0000 
1       0      L1 (nl)                  400     op_f32_f32           
2       1      L2_dense (dense)     100,250    smul_f32_c8   100,250     0.0000 
3       1      L2 (nl)                  250     op_f32_f32           
4       2      L3_dense (dense)      25,100    smul_f32_c8    25,100     0.0001 
5       2      L3 (nl)                  100     op_f32_f32           
6       3      L4_dense (dense)       5,050   smul_f32_f32     5,050     0.0000 
7       3      L4 (nl)                   50     op_f32_f32           
8       4      L5_dense (dense)          51   smul_f32_f32        51     0.0000 
9       4      L5 (nl)                   10     op_f32_f32           
------- ------ ------------------ --------- -------------- --------- ---------- 
total                               134,061                  133,251     0.0000 

Number of operation types
---------------- --------- ----------- 
operation type           #           % 
---------------- --------- ----------- 
smul_f32_f32         7,901        5.9% 
op_f32_f32             810        0.6% 
smul_f32_c8        125,350       93.5% 

Complexity report (model)
------ ---------- ------------------------- ------------------------- -------- 
m_id   name       c_macc                    c_rom                     c_id     
------ ---------- ------------------------- ------------------------- -------- 
0      input_0    |                  2.4%   ||                 7.0%   [0, 1]   
1      L2_dense   ||||||||||||||||  75.0%   ||||||||||||||||  63.7%   [2, 3]   
2      L3_dense   ||||              18.8%   ||||              16.5%   [4, 5]   
3      L4_dense   |                  3.8%   |||               12.6%   [6, 7]   
4      L5_dense   |                  0.0%   |                  0.1%   [8, 9]   
------ ---------- ------------------------- ------------------------- -------- 
macc=134,061 weights=160,052 act=2,600 ram_io=0

Generated files (7)
-------------------------------------------------------------------- 
C:\Users\Hanin Anwar\.stm32cubemx\test1_output\test1_config.h        
C:\Users\Hanin Anwar\.stm32cubemx\test1_output\test1.h               
C:\Users\Hanin Anwar\.stm32cubemx\test1_output\test1.c               
C:\Users\Hanin Anwar\.stm32cubemx\test1_output\test1_data_params.h   
C:\Users\Hanin Anwar\.stm32cubemx\test1_output\test1_data_params.c   
C:\Users\Hanin Anwar\.stm32cubemx\test1_output\test1_data.h          
C:\Users\Hanin Anwar\.stm32cubemx\test1_output\test1_data.c          
